…
(2,2), strides=(2,2))) model.add(tf.keras.layers.Flatten()) model.add(tf.keras.layers.Dense(512,activation =&#39;relu&#39;)) model.add(tf.keras.layers.Dense(2, activation = &quot;softmax&quot;)) 1.7 Deep learning model architecture This sections shows the DL model based on CNN for cell image classification. The number of parametes are also provided here. model.summary() ## Model: &quot;sequential&quot; ## _________________________________________________________________ ## Layer (type) Output Shape Param # ## ================================================================= ## conv2d (Conv2D) (None, 128, 128, 32) 2432 ## _________________________________________________________________ ## max_pooling2d (MaxPooling2D) (None, 64, 64, 32) 0 ## _________________________________________________________________ ## conv2d_1 (Conv2D) (None, 64, 64, 64) 18496 ## _________________________________________________________________ ## max_pooling2d_1 (MaxPooling2 (None, 32, 32, 64) 0 ## _________________________________________________________________ ## conv2d_2 (Conv2D) (None, 32, 32, 96) 55392 ## _________________________________________________________________ ## max_pooling2d_2 (MaxPooling2 (None, 16, 16, 96) 0 ## _________________________________________________________________ ## conv2d_3 (Conv2D) (None, 16, 16, 96) 83040 ## _________________________________________________________________ ## max_pooling2d_3 (MaxPooling2 (None, 8, 8, 96) 0 ## _________________________________________________________________ ## flatten (Flatten) (None, 6144) 0 ## _________________________________________________________________ ## dense (Dense) (None, 512) 3146240 ## _________________________________________________________________ ## dense_1 (Dense) (None, 2) 1026 ## ================================================================= ## Total params: 3,306,626 ## Trainable params: 3,306,626 ## Non-trainable params: 0 ## _________________________________________________________________ 1.8 Model Compile Here we compile the CNN model for checking any errors and initialize the ADAM optimizer. We have used Cross-Entropy has our loss function. model.compile(optim
…
